model_predict/kidcare.tflite (tflite, 12076 bytes, 5 tensors)

arith.constant f4 [1, 32]
0	0xbde456ea	-0.1114939
1	0x3fb5d4cc	1.4205565
2	0x3fb7064b	1.4298795
3	0xbeae6db4	-0.34068072
4	0x3fc6da20	1.5535316
5	0xbf114293	-0.5674221
6	0x3fd23ce0	1.6424828
7	0x3faf074a	1.36741
8	0xbf6459e1	-0.89199644
9	0xbf5a4fd2	-0.85278046
10	0xbe95547a	-0.29166013
11	0x3f988e1b	1.1918367
12	0xbf4ac8ff	-0.79212946
13	0x3fc5e547	1.5460595
14	0x3ed246e8	0.41069722
15	0x40006284	2.006013
16	0x3f9411f4	1.1567979
17	0xbf35f635	-0.7107881
18	0x3f9b758c	1.2145247
19	0xbf4327d6	-0.7623266
20	0x3fbbec54	1.4681497
21	0x3fc2218c	1.5166488
22	0x40066094	2.0996447
23	0xbf1ba26c	-0.6079471
24	0xbe47fa4f	-0.19529079
25	0x400ac6b7	2.1683786
26	0x3fc15c65	1.5106322
27	0x3eb80528	0.35941434
28	0x3fdb7bab	1.7147115
29	0x3fcae764	1.5851865
30	0x3fa44f67	1.2836732
31	0xbec6f00e	-0.38855022

arith.constant1 f4 [32, 64]
0	0xbe33bcd6	-0.17552504
1	0x3dcdfec5	0.10058359
2	0x3d70b7e0	0.058769107
3	0x3d13e817	0.03611001
4	0xbdd271b8	-0.102755964
5	0xbdb54e01	-0.08852769
6	0x3da2fc17	0.079582386
7	0xbe61bdb8	-0.22045028
8	0x3de8f730	0.11375272
9	0xbe0d1d02	-0.13780597
10	0x3c3b92c5	0.011448567
11	0x3e5517de	0.20809886
12	0xbda25608	-0.079265654
13	0x3e1f1503	0.15535359
14	0x3b5a8a51	0.0033346603
15	0x3df7d5fa	0.1210136
16	0x3cd4fe9b	0.026000312
17	0x3ddd650e	0.1081029
18	0xbe46b9b8	-0.19406784
19	0xbe0543be	-0.13014123
20	0x3e0c283a	0.1368722
21	0xbcf826a4	-0.030291863
22	0x3e69c590	0.2282927
23	0xbdca5699	-0.098797984
24	0xbe06e79c	-0.1317429
25	0x3d717514	0.058949545
26	0xbe0a184e	-0.13485834
27	0xbe566ce8	-0.20939982
28	0x3c624e40	0.013812602
29	0xbddd02fc	-0.10791585
30	0x3e2d4c01	0.16923524
31	0xbca037b8	-0.019557819
32	0xbe1f6d3c	-0.15569013
33	0xbde8b7a0	-0.11363149
34	0x3d944413	0.072395466
35	0xbdfe67f8	-0.12422174
36	0x3c605f00	0.013694525
37	0x3d8570b8	0.0651564
38	0x39e6a0e5	0.00043988894
39	0x3e48d992	0.19614246
40	0xbe4c2509	-0.19936003
41	0xbe4b866e	-0.198755
42	0xbd34d7fd	-0.044151295
43	0xbd313013	-0.043258738
44	0xbe7fe773	-0.24990635
45	0xbe7ab3b8	-0.2448262
46	0xbc00300f	-0.007823958
47	0x3e36e58c	0.17861003
48	0xbdbb63d8	-0.09149903
49	0xbdd738ed	-0.105089046
50	0xbd299d50	-0.04140979
51	0x3e0ba779	0.13638104
52	0x3dd4d247	0.1039167
53	0xbe3ce7e0	-0.18447828
54	0xbdad74b8	-0.08469528
55	0xbe531008	-0.20611584
56	0xbe5421d0	-0.20716023
57	0x3e2f80a8	0.17138922
58	0x3c377971	0.0111983875
59	0x3e40adb7	0.18816267
60	0xbe2d5c3c	-0.16929716
61	0xbe61999e	-0.22031257
62	0x3e567278	0.20942104
63	0xbe0ae020	-0.1356206
64	0xbe56f585	-0.20992096
65	0xbe5826c5	-0.2110854
66	0x3e15e1cd	0.14636917
67	0xbea8d75e	-0.32976812
68	0x3f1920fb	0.5981595
69	0x3e8383bd	0.25686446
70	0x3e48ca84	0.19608504
71	0x3f22e8ad	0.63636285
72	0x3f202fdf	0.62573045
73	0xbdb4e69a	-0.08833046
74	0x3d90855f	0.070566885
75	0x3da7ce3b	0.08193632
76	0x3ddcca20	0.1078074
77	0x3ec1a105	0.3781816
78	0xbec410ec	-0.3829416
79	0x3f21c009	0.6318365
80	0xbe8afff4	-0.27148402
81	0x3fda120f	1.7036761
82	0x3c87f502	0.016596321
83	0xbdb50f15	-0.08840767
84	0x3e75f2f0	0.24018455
85	0x3dc9b212	0.09848417
86	0x3f81d87f	1.0144194
87	0xbf49f6b6	-0.78892076
88	0x3f4dec80	0.80438995
89	0x3e8d2b24	0.27571976
90	0xbe3992c5	-0.18122394
91	0xbead3df3	-0.33836326
92	0x3e9a9de3	0.30198583
93	0xbe0f274c	-0.13979834
94	0xbdba0fbc	-0.09085032
95	0xbe119758	-0.1421789
96	0x3e0d673d	0.13808914
97	0x3e3c8df7	0.1841353
98	0x3e232e72	0.15935686
99	0x3f260182	0.6484605
100	0x3ba1b000	0.004934311
101	0xbe8dccfe	-0.2769546
102	0x3e108a36	0.14115223
103	0x3fc6c904	1.5530095
104	0x3d94187b	0.07231232
105	0x3e5045fc	0.20339197
106	0xbe14ada2	-0.1451936
107	0x3e6335ec	0.22188538
108	0x3e3aa309	0.18226255
109	0x3e8ac1c2	0.2710095
110	0xbe797323	-0.24360327
111	0x3d9ca89a	0.07649346
112	0xbcff461d	-0.031161362
113	0xbe99dfb9	-0.300535
114	0x3dbcb308	0.09213835
115	0x3fc13c3e	1.509651
116	0xbf8a20f0	-1.0791302
117	0x3e106c18	0.14103734
118	0x3eb1bf42	0.3471623
119	0xbe4adb2b	-0.19810168
120	0xbf117f91	-0.56835276
121	0x3e4b4fd8	0.19854677
122	0x3cc57890	0.02410534
123	0x3e5f1d3e	0.21788499
124	0x3e1f8936	0.15579686
125	0x3e53097b	0.20609085
126	0xbe4f39dd	-0.20236917
127	0x3e21df0d	0.15807743
128	0xbf165c74	-0.5873482
129	0xbe97ffb2	-0.29687268
130	0x3cab5e40	0.020918965
131	0xbea49adb	-0.32149395
132	0x3eca574c	0.39519727
133	0x3d58f5d1	0.052968804
134	0x3e60c5f4	0.21950513
135	0x3f4b03c8	0.79302645
136	0x3f1ed383	0.6204149
137	0xbea90e63	-0.3301879
138	0x3c8489a9	0.016178923
139	0x3d49e2f4	0.049288705
140	0xbc2f3840	-0.010694563
141	0x3e839198	0.25697017
142	0xbe732990	-0.23746324
143	0x3f1182db	0.56840295
144	0xbe9445f8	-0.28959632
145	0x3fcb2055	1.5869242
146	0x3d14cd28	0.036328465
147	0xbe250918	-0.1611675
148	0xbb89b47c	-0.0042024236
149	0x3e59bfda	0.21264592
150	0x3f46f185	0.7771228
151	0xbf5502d8	-0.83207464
152	0x3f238c59	0.6388603
153	0xbdfeaa05	-0.124347724
154	0x3ce0bb03	0.027432924
155	0xbd61cf43	-0.0551293
156	0x3e9dcc5c	0.30819976
157	0xbeccaf10	-0.39977312
158	0x3e23a3db	0.15980475
159	0x3e97b863	0.29632863
160	0xbe236ea2	-0.15960172
161	0x3d0a118b	0.033708137
162	0xbd2d089c	-0.04224454
163	0x3f16a734	0.5884888
164	0x3e6e2758	0.23257196
165	0x3d28e4a7	0.041233685
166	0x3edd2ff9	0.43200663
167	0x3fa8eab5	1.3196627
168	0x3eb40231	0.35157922
169	0x3ef3b8ee	0.47602028
170	0x3e473adf	0.19456051
171	0x3e0fa9a9	0.14029564
172	0x3bb3ded6	0.0054892106
173	0x3efbacd7	0.49155304
174	0xbe018938	-0.12650001
175	0x3d8caa76	0.0686845
176	0xbe056256	-0.13025793
177	0xbe402281	-0.18763162
178	0xbe9fde02	-0.31224066
179	0x3fb813cd	1.4381043
180	0xbfaf289b	-1.3684267
181	0x3e7d5187	0.24738131
182	0x3e925cf0	0.2858653
183	0x3e17e9ba	0.14835253
184	0xbf59e4d1	-0.8511477
185	0x3ebbb47d	0.3666114
186	0xbd6d1c1f	-0.057888146
187	0x3eef237d	0.46706763
188	0x3dc1669c	0.09443399
189	0x3ea964a8	0.33084607
190	0x3dcf1082	0.101105705
191	0x3e8e8630	0.27836752
192	0x3d21d62e	0.0395109
193	0xbccebc33	-0.025236225
194	0xbce37561	-0.027765932
195	0xbc02dc38	-0.007987075
196	0x3e3b2b41	0.18278219
197	0xbd235168	-0.039872557
198	0xbcfb99d7	-0.030713005
199	0xbcda2ac8	-0.026631728
200	0xbe50a96e	-0.20377132
201	0xbe10566f	-0.14095472
202	0x3e0a54d2	0.13508919
203	0x3bcfda0a	0.006343131
204	0x3e51a3d8	0.20472658
205	0x3e45379b	0.19259493
206	0x3db6815f	0.08911394
207	0xbe0112d8	-0.12604845
208	0xbdc81581	-0.097697265
209	0xbe093feb	-0.13403289
210	0xbe813427	-0.25235102
211	0xbdb48a9b	-0.088154994
212	0x3e159f0b	0.14611451
213	0xbd06f6f7	-0.032950368
214	0xbde274c8	-0.110574305
215	0x3e355cf3	0.17711239
216	0x3d55c02e	0.05218523
217	0xbe7caa5d	-0.24674363
218	0xbe48332f	-0.19550775
219	0xbe5fe3d1	-0.21864249
220	0x3e15df35	0.14635928
221	0xbe3b05fe	-0.18264005
222	0xbdd9825e	-0.10620569
223	0xbe1ee694	-0.15517646
224	0xbe1f26cc	-0.15542144
225	0x3e323111	0.1740153
226	0xbe21b24c	-0.15790671
227	0xbd213034	-0.03935261
228	0x3c289b00	0.010290861
229	0x3d1d854e	0.038457207
230	0xbe66da4f	-0.22544216
231	0x3e2d8863	0.16946559
232	0x3e1e8cec	0.15483445
233	0xbe426821	-0.18985035
234	0x3d917479	0.071022935
235	0x3dd03dba	0.101680234
236	0x3c5cd33d	0.0134780975
237	0x3e60c116	0.21948656
238	0xbe6aaf77	-0.22918497
239	0xbe3b9860	-0.18319845
240	0xbdafca67	-0.08583527
241	0xbe6d771e	-0.23189971
242	0xbe1fb222	-0.15595296
243	0x3e19738a	0.14985481
244	0x3e04e4c2	0.12977889
245	0xbe20814c	-0.15674323
246	0xbe2f50b6	-0.17120633
247	0x3e1c29b3	0.15250282
248	0xbe51db43	-0.20493798
249	0xbe5377b0	-0.20651126
250	0x3d7143a0	0.058902383
251	0x3dbfc395	0.09363476
252	0x3e421cdb	0.1895632
253	0x3e12f818	0.14352453
254	0xbdf26620	-0.11835885
255	0xbe2690b3	-0.16266136

arith.constant3 f4 [32]
0	0xbc24a622	-0.010049375
1	0x3c168836	0.009187749
2	0x3d4f8a0e	0.05066877
3	0xbcaca5d4	-0.021075167
4	0x3d33522b	0.043779533
5	0x3dde3a95	0.108510174
6	0x3e055fc5	0.13024814
7	0x3daa61b1	0.083194144
8	0x3de12d96	0.10995023
9	0x3dc35eab	0.09539541
10	0xbcf2422d	-0.02957257
11	0x3ceabd89	0.02865483
12	0x3df20bcc	0.11818656
13	0x3c1b0655	0.009461959
14	0x00000000	0.0
15	0x3da7d174	0.08194247
16	0x3cb6abe9	0.02229877
17	0x3dd851d4	0.105624825
18	0x3d269524	0.040669575
19	0x3df7b58d	0.12095175
20	0x3c80ab82	0.015706781
21	0x3d737378	0.05943629
22	0x3dc04127	0.09387427
23	0x3df41672	0.119183436
24	0xbc42daba	-0.011892969
25	0x3d038142	0.03210569
26	0x3d4f7573	0.050649118
27	0xbd16a42a	-0.036777653
28	0xbd4b89ab	-0.049691837
29	0x3d3b278f	0.045692023
30	0x3da6c81a	0.08143635
31	0xbc959b44	-0.018262513

sequential_28_1/dense_114_1/Add/ReadVariableOp f4 [64]
0	0xbe8c8e39	-0.27452257
1	0x3d1eba2c	0.038751766
2	0x3d18db52	0.037318535
3	0xbd0026ca	-0.031286992
4	0x3e8f3e42	0.27977186
5	0xbd8f39ab	-0.06993421
6	0x3e497192	0.1967223
7	0xbd957cfe	-0.07299231
8	0x3cd349bd	0.025791997
9	0xbd4ea14d	-0.050446797
10	0xbd16cd9b	-0.036817174
11	0x3e3d405f	0.18481587
12	0x00000000	0.0
13	0x3df1088b	0.117692076
14	0x3bb50d89	0.005525295
15	0x3dac3040	0.084076405
16	0xbd08c167	-0.033387568
17	0xbd01bd92	-0.03167493
18	0x3daae09e	0.083436236
19	0xbe6aecf6	-0.22941956
20	0xbd549add	-0.0519055
21	0xbb6023da	-0.0034201057
22	0x3a8a52f7	0.001055329
23	0x3e3e5cc9	0.18590082
24	0xbda8836e	-0.08228193
25	0xbd434b7d	-0.047679413
26	0x3d850e85	0.0649691
27	0xbe028fc5	-0.12750156
28	0x3debc320	0.115118265
29	0x3c6e8ab1	0.014559434
30	0x3d9ca73e	0.076490864
31	0xbd9c3c97	-0.07628744
32	0xbce21864	-0.027599521
33	0xbd8504f7	-0.064950876
34	0x3d5ab869	0.053398523
35	0x3d78006f	0.06054729
36	0x00000000	0.0
37	0x3b867feb	0.0041046045
38	0xbd8b5117	-0.06802576
39	0x3e199df4	0.1500166
40	0x3e222fbd	0.15838523
41	0x3e3d8a32	0.18509749
42	0x3d1a1d59	0.037625644
43	0xbdc689aa	-0.09694226
44	0x3e0f50fc	0.13995737
45	0x3d670ae1	0.05640686
46	0x3e0c8b9e	0.13725135
47	0xbc21ed03	-0.009883168
48	0x3d4298be	0.047508948
49	0xbd76b3c3	-0.060230028
50	0x3d2919fe	0.041284554
51	0xbcfd1746	-0.030894887
52	0xbe35339b	-0.17695467
53	0xbcb05e05	-0.021529207
54	0x3e1e4560	0.15456152
55	0x3c2dde7b	0.0106121255
56	0x3e412f36	0.18865666
57	0xbd84929f	-0.06473278
58	0xbd6179b5	-0.05504771
59	0x3e3f6665	0.18691404
60	0xbcefbe1b	-0.029265454
61	0x3d76484f	0.060127553
62	0xbc9f085e	-0.01941317
63	0x3cf6cdca	0.030127425

sequential_28_1/dense_114_1/MatMul f4 [64, 5]
0	0xbc801762	-0.01563615
1	0x3e9148ab	0.28375754
2	0xbd39de0c	-0.045377776
3	0x3f0113c4	0.50420785
4	0x3bf404f1	0.007446878
5	0xbd2002ce	-0.039065175
6	0xbeabc2d2	-0.33547074
7	0x3d9e5567	0.07731133
8	0x3e90df0a	0.28295165
9	0x3d889677	0.06669324
10	0x3ea8b41e	0.32949919
11	0xbdce9d3e	-0.10088585
12	0x3e6f533c	0.23371595
13	0xbdb2670c	-0.08711061
14	0xbe9869e5	-0.2976829
15	0xbe9273c5	-0.2860395
16	0xbd176632	-0.036962695
17	0x3e9d0e51	0.30674985
18	0x3efa5182	0.4889031
19	0x3e0bc945	0.13650997
20	0xbf9ebd73	-1.2401565
21	0xbe5d4463	-0.21608119
22	0x3d0c50ee	0.034256868
23	0x3e188bda	0.14897099
24	0xbeef7a0d	-0.46772805
25	0xbea4ef38	-0.3221376
26	0x3eb8e051	0.3610864
27	0x3eb7e0b0	0.3591361
28	0xbe8ef738	-0.27922988
29	0x3e6da87d	0.23208804
30	0xc00651f4	-2.098752
31	0x3dfa4b62	0.122214094
32	0x3e990bcf	0.29891822
33	0xbe6a88e0	-0.22903776
34	0xbd46bfe4	-0.048522845
35	0x3e304d85	0.17217071
36	0x3eef81c3	0.46778688
37	0x3cd37e2c	0.025817
38	0xbec08c1e	-0.376069
39	0x3c1cdac6	0.009573644
40	0x3cbd32b3	0.023095464
41	0x3e304770	0.17214751
42	0x3ec20e01	0.3790131
43	0xbeb2c9cf	-0.34919593
44	0xbdb5463f	-0.08851289
45	0xbe9a26a2	-0.301076
46	0x3e1f74e3	0.15571932
47	0x3eb3acb7	0.35092708
48	0x3ee9fca6	0.45700568
49	0x3dabf264	0.08395842
50	0xbb1c6adf	-0.002386741
51	0x3df46122	0.11932589
52	0x3eac9f7e	0.33715433
53	0xbe62ca4a	-0.2214748
54	0x3ec21c2d	0.3791212
55	0xbe430936	-0.19046482
56	0x3d995a2a	0.074879006
57	0x3e649426	0.22322139
58	0x3e86085c	0.26178253
59	0xbd6065c1	-0.05478454
60	0xbd69a388	-0.05704072
61	0xbe4d1500	-0.20027542
62	0xbe3e203a	-0.18566981
63	0xbdde71fe	-0.10861586
64	0xbe947e55	-0.29002634
65	0xbf0bd1c6	-0.54616964
66	0x3e86257b	0.2620047
67	0xbd98f8e2	-0.07469346
68	0xbde1d350	-0.11026633
69	0xbe9b2327	-0.30300257
70	0xbe419fd5	-0.18908627
71	0xbe5e1484	-0.21687514
72	0x3ea1a8c6	0.31574076
73	0x3eeaca86	0.45857638
74	0xbcb1141a	-0.02161603
75	0xbc56bfd7	-0.013107262
76	0xbe8163a2	-0.25271326
77	0x3ecf0ced	0.4043955
78	0x3b904bb0	0.004403554
79	0xbea058c1	-0.31317714
80	0x3cdbeb60	0.026845634
81	0xbed40fd3	-0.41418323
82	0x3e9c7a71	0.30562165
83	0x3e03b108	0.12860501
84	0x3e5dcb0b	0.21659486
85	0xbb3771c8	-0.0027991403
86	0xbded7bd2	-0.115958825
87	0xbf43d0cb	-0.7649047
88	0x3eef020b	0.46681246
89	0x3e2ab15d	0.16669221
90	0x3cb892e4	0.02253098
91	0x3e5e1e82	0.21691325
92	0xbe1c1c0e	-0.15245077
93	0x3df7127d	0.12064073
94	0xbe9e760a	-0.30949432
95	0xbc168a3f	-0.009188234
96	0x3e1aecf8	0.15129459
97	0xbde0c478	-0.109749734
98	0x3efcb58f	0.49357268
99	0x3d9a85d9	0.07545061
100	0x3e04da49	0.12973894
101	0xbe9ff7e2	-0.31243807
102	0xbe07ccc0	-0.132617
103	0x3e3ff8a4	0.18747193
104	0x3ea6b958	0.3256328
105	0xbe1e1a31	-0.15439679
106	0xbe6416dc	-0.22274345
107	0xbe2b4abc	-0.16727728
108	0x3ed32976	0.4124257
109	0x3e8fd9db	0.28095898
110	0x3e1606a4	0.1465097
111	0xbf19dfee	-0.60107315
112	0xbecdbfd9	-0.4018543
113	0xbf3bde27	-0.7338585
114	0xbd9997a6	-0.07499628
115	0xbd15071b	-0.03638373
116	0xbeda3cd7	-0.42624542
117	0x3e63faf0	0.22263694
118	0xbf06b79d	-0.5262392
119	0x3efb775a	0.49114496
120	0x3c231139	0.009952837
121	0x3f035ae1	0.51310545
122	0x3d839296	0.064244434
123	0xbebd3e43	-0.36961564
124	0xbdb4ff9a	-0.08837815
125	0xbcc572f5	-0.024102667
126	0x3dd6f047	0.10495048
127	0xbe8cb524	-0.2748195
128	0x3eb99781	0.362484
129	0x3e0479af	0.12937044
130	0xbc45b027	-0.012065924
131	0xbeb322e0	-0.34987545
132	0xbd099c2f	-0.033596214
133	0x3e6d14eb	0.23152511
134	0x3e6ec6ab	0.23317973
135	0x3dc0f713	0.09422126
136	0xbe3c4469	-0.18385471
137	0x3d466ba9	0.048442516
138	0x3ec6aa46	0.38801783
139	0xbd9ece33	-0.07754173
140	0xc00f7f42	-2.2421422
141	0x3d8b6e6a	0.06808169
142	0xbe252538	-0.16127479
143	0xbe029ac8	-0.12754357
144	0x3eaa10d6	0.3321597
145	0x3b8727d7	0.0041246223
146	0xbea4d51c	-0.3219384
147	0x3e3df9c1	0.18552305
148	0x3ece3e53	0.40281925
149	0xbe357c26	-0.1772314
150	0x3d80ba33	0.06285515
151	0xbe9ed10b	-0.31018862
152	0x3ddfea65	0.10933379
153	0x3ebe8b33	0.37215576
154	0xbe541a9a	-0.20713273
155	0x3d8fa923	0.07014682
156	0x3d81d25c	0.06338951
157	0xbcb5c7a2	-0.022189919
158	0x3eb13698	0.34611964
159	0xbdcdba1f	-0.100452654
160	0xbe7de60e	-0.2479479
161	0x3d4c166f	0.04982608
162	0x3e0ded89	0.13860144
163	0xbe2da1c8	-0.16956246
164	0xbdd61e3c	-0.104549855
165	0x3e96bd17	0.2944114
166	0x3ccda4bd	0.025102967
167	0xbaa467fe	-0.0012543199
168	0xbe04967f	-0.12948035
169	0xbd85ca46	-0.06532721
170	0xbe112658	-0.14174783
171	0xbea357d8	-0.31902957
172	0xbdb94826	-0.09046964
173	0x3ebcb092	0.36853462
174	0x3e8aecd6	0.27133816
175	0x3cc08658	0.02350156
176	0xbed0ef23	-0.40807447
177	0x3e4e03be	0.20118615
178	0x3ecabb99	0.3959625
179	0xbedfa6dd	-0.43681994
180	0xbe361620	-0.17781878
181	0xbe85cf41	-0.26134685
182	0xbe44f62a	-0.19234529
183	0xbe909ef6	-0.28246278
184	0x3c3977e0	0.011320084
185	0x3dd0ed6b	0.10201534
186	0x3dd55803	0.104171775
187	0x3ea35650	0.3190179
188	0xbe34ae53	-0.17644624
189	0xbe0ae3fd	-0.13563533
190	0x3e26d8f1	0.16293694
191	0x3ed0f584	0.40812314
192	0xbe0faea4	-0.14031464
193	0xbecb3605	-0.3968965
194	0x3f091523	0.5354788
195	0x3c6cee9d	0.014461187
196	0xbef7a03d	-0.4836444
197	0xbe760d39	-0.24028482
198	0x3ef0df9a	0.47045594
199	0xbd91f756	-0.07127254
200	0xc00f234f	-2.23653
201	0x3e99de9f	0.3005266
202	0xbe9fa6ab	-0.31181845
203	0xbb707149	-0.0036688617
204	0x3ddf658b	0.1090804
205	0xc005ede9	-2.092646
206	0x3ec48ad6	0.38387173
207	0xbe30c5eb	-0.17263
208	0xbd8f53b7	-0.06998389
209	0xbd451ff6	-0.048126183
210	0xbc55f3f3	-0.01305865
211	0xbe1647d3	-0.14675836
212	0x3df9e2ca	0.1220146
213	0x3ed03007	0.40661642
214	0xbd43d38c	-0.04780917
215	0x3c4b260c	0.012399208
216	0x3e455fc3	0.19274811
217	0xbe550dde	-0.20806071
218	0x3eef25d8	0.4670856
219	0x3e3d054d	0.18459053
220	0x3e3661a9	0.17810692
221	0xbe7ff2f1	-0.24995019
222	0x3eafa76b	0.34307417
223	0x3f14fcf5	0.5819848
224	0xbc9944c2	-0.018709544
225	0x3d0fe697	0.035132017
226	0x3ea5d951	0.32392362
227	0x3e9ef3b3	0.31045303
228	0xbe75714e	-0.23969004
229	0xbec2e3de	-0.38064474
230	0x3e572d92	0.21013477
231	0xbed077b6	-0.40716332
232	0x3e7a5c4c	0.24449271
233	0xbe49e317	-0.19715534
234	0x3e3e0507	0.18556605
235	0xbe55659a	-0.20839539
236	0xbe8c4637	-0.2739732
237	0x3d83a585	0.06428055
238	0x3b87fc6f	0.0041499655
239	0xbd874ecc	-0.06606826
240	0x3e08f6b8	0.13375366
241	0xbe7f6bd9	-0.24943484
242	0x3e1f0e3d	0.15532775
243	0x3e94ee38	0.29087996
244	0xbe3caff0	-0.1842649
245	0xbe50b0e4	-0.20379978
246	0xbdd20cfa	-0.10256381
247	0x3e981977	0.29706928
248	0x3e6e91a5	0.23297746
249	0x3e8833d2	0.26602036
250	0x3e8e7e69	0.27830818
251	0xbead948f	-0.33902404
252	0x3e126fb2	0.14300421
253	0x3e460b47	0.1934024
254	0xbea7d263	-0.327777
255	0xbb97f115	-0.0046368935
